lenet.pth (torch, 487495 bytes, 10 tensors)

conv1.weight f4 [16, 3, 5, 5]
-0.04574149 -0.11006435 0.017613249 0.08246738 0.023908172 -0.039669074 0.091288626 -0.006674721
-0.063121386 -0.031968147 -0.10110966 0.055562563 -0.008793167 0.09569323 -0.027311815 -0.019283189
0.07754076 -0.0085179 0.1291867 0.21039367 0.050043214 0.08120306 0.16093338 0.1173999
0.15503871 -0.10182299 0.020704957 -0.07861979 -0.059213955 0.033050627 0.07279381 -0.0019669028
-0.078720875 -0.004053088 -0.09114186 0.08530391 0.107999556 0.06249015 -0.23535071 -0.059449643
-0.11044088 -0.043421805 0.10730908 0.046641313 -0.029055662 -0.08825673 -0.044009734 0.034798007
0.029124267 0.0013662039 0.14864759 -0.00023950932 0.0059997365 0.018140227 0.085357 0.17906953
0.20115475 0.118795566 -0.06442941 -0.07501066 0.14855164 0.063211955 0.048251748 -0.045447495
-0.14181969 0.011191673 0.016247839 0.06516832 0.032030344 -0.2190531 -0.0073965397 0.0099234525
-0.11420115 -0.050194796 -0.12782839 -0.037082523 -0.03995625 -0.17824763 -0.11095214 -0.022716355
0.04866855 0.08203262 -0.08229157 0.261296 0.020248652 0.048283327 0.2016837 0.031354845
0.32005587 -0.12255249 -0.071352504 -0.17575443 -0.30920434 -0.20505995 -0.23574579 0.042049866
0.12781504 0.050257295 0.18333837 0.07408456 0.051997103 -0.09721514 -0.21864079 -0.11123645
0.013314506 0.13263352 0.14963433 -0.0059096604 0.302918 0.27465957 0.09032362 0.02052336
0.10895741 0.3889187 -0.07166479 -0.22625408 -0.1215588 -0.19723211 -0.21099666 -0.28081962
-0.0034124127 -0.03680175 -0.0035122877 0.18485169 0.042231705 -0.093807325 -0.1064868 -0.05537673
-0.13019356 -0.15690927 -0.06657368 0.12243528 0.017796667 0.18936706 0.11784638 0.045796104
0.2453446 0.09874762 0.14553772 0.060309548 0.01022969 -0.09022064 -0.19433461 -0.091407776
-0.087529175 0.092566565 -0.044946995 -0.0818757 0.11500539 -0.00528139 0.108052626 0.19028053
0.21427 -0.058082033 -0.05803894 0.15020622 0.18531682 0.30560604 0.16148126 0.09204838
0.19371144 0.32303354 0.16188858 0.16326775 0.041019138 -0.0004119242 0.16956718 0.081746124
-0.068397194 -0.16799368 -0.05535507 -0.21644403 -0.23951481 -0.20483264 -0.22334574 -0.16531314
-0.12348001 -0.22657834 -0.0138611 -0.06342333 -0.24274713 -0.11306335 -0.2377339 -0.089314625
-0.12961695 -0.18761219 -0.11111594 -0.13807029 -0.20131561 -0.039751284 0.08295387 -0.109971605
0.0027356595 -0.044647016 0.09707558 -0.03925474 0.12678704 0.08551284 0.09344646 0.049847435
-0.05708862 -0.0928212 -0.03935675 0.05604285 0.12573533 -0.007227841 -0.041258726 -0.08354874
-0.099072605 0.03379833 -0.030460315 -0.23375954 -0.07872855 0.029637063 -0.029171918 -0.048454907
-0.057212796 -0.10034943 0.052039184 0.022881327 0.1899347 0.12022727 0.094017595 0.11887517
0.21224591 -0.050733656 0.13219377 0.1167336 -0.093798846 -0.05941358 -0.008505198 -0.2620397
0.0031049221 0.2640899 -0.02441996 0.11828572 -0.09171738 -0.2128889 -0.06411208 0.27326953
0.10400916 0.33429995 -0.13487367 -0.2922981 0.018545413 -0.11495327 -0.020296546 0.12679356
0.17093895 -0.20985556 -0.06561924 -0.10403667 0.13276502 0.1115273 -0.031878922 -0.11156285
00000000: 6e5b 3bbd 6b69 e1bd a949 903c a8e4 a83d
00000010: 12db c33c 0a7c 22bd 88f5 ba3d 9eb7 dabb
00000020: c945 81bd 08f1 02bd 9512 cfbd 9295 633d
00000030: 3711 10bc d0fa c33d 07bd dfbc c7f7 9dbc
00000040: b1cd 9e3d a98e 0bbc 8549 043e 7071 573e
00000050: 1dfa 4c3d ca4d a63d b8cb 243e 5c6f f03d
00000060: 78c2 1e3e 9288 d0bd 719d a93c 6a03 a1bd
00000070: 558a 72bd 1860 073d ec14 953d 27e7 00bb
00000080: 6938 a1bd c4cf 84bb 95a8 babd d1b3 ae3d
00000090: df2e dd3d acf5 7f3d c7ff 70be 7881 73bd
000000a0: d42e e2bd 10db 31bd ddc4 db3d f60a 3f3d
000000b0: 2406 eebc f2bf b4bd 8d43 34bd 5b88 0e3d
000000c0: 0496 ee3c 3212 b33a 1337 183e cb24 7bb9
000000d0: 7099 c43b d09a 943c a7cf ae3d 015e 373e
000000e0: 83fb 4d3e 174b f33d 91f3 83bd 309f 99bd
000000f0: ec1d 183e 4575 813d a0a3 453d 2727 3abd
00000100: 2e39 11be 475d 373c 301a 853c f876 853d
00000110: 4032 033d 754f 60be ac5e f2bb fa95 223c
00000120: 4be2 e9bd 0f99 4dbd 72e5 02be d8e3 17bd
00000130: 2aa9 23bd 8c86 36be e03a e3bd a617 babc
00000140: ac58 473d b800 a83d 7c88 a8bd 97c8 853e
00000150: 80e0 a53c bdc4 453d 2c86 4e3e f06d 003d
00000160: 5dde a33e cdfc fabd 4321 92bd f8f8 33be
00000170: 0850 9ebe 3cfb 51be 5867 71be 7b3c 2c3d
00000180: f2e1 023e 98da 4d3d 0ebd 3b3e a5b9 973d
00000190: eafa 543d bb18 c7bd 5fe3 5fbe f0cf e3bd
000001a0: 1625 5a3c 15d1 073e be39 193e d3a5 c1bb
000001b0: 1118 9b3e 2ea0 8c3e 97fb b83d 9b20 a83c
000001c0: 1025 df3d 5a20 c73e fdc4 92bd 26af 67be
000001d0: d2f3 f8bd 37f7 49be 820f 58be 97c7 8fbe
000001e0: c9a2 5fbb 6fbd 16bd 692e 66bb c349 3d3e
000001f0: 27fb 2c3d 0e1e c0bd c015 dabd b6d2 62bd
00000200: 7651 05be d3ac 20be c857 88bd 59bf fa3d
00000210: 51ca 913c 70e9 413e 7159 f13d b294 3b3d
00000220: 9d3b 7b3e 313c ca3d d707 153e 2507 773d
00000230: 6e9a 273c 99c5 b8bd a7ff 46be 0034 bbbd
00000240: 7f42 b3bd 8a93 bd3d 571a 38bd 72ae a7bd
00000250: f287 eb3d 830f adbb b24a dd3d e6d8 423e
00000260: 9869 5b3e 6de7 6dbd 3dba 6dbd a9cf 193e
00000270: b1c3 3d3e 6578 9c3e 585b 253e dc83 bc3d
00000280: 4b5c 463e a764 a53e 1fc6 253e a92f 273e
00000290: af03 283d 88f7 d7b9 05a3 2d3e 836a a73d
000002a0: d413 8cbd 8906 2cbe ffbb 62bd 81a3 5dbe
000002b0: 5f43 75be a6bf 51be bfb4 64be d947 29be
000002c0: 16e3 fcbd 2704 68be ab19 63bc 17e4 81bd
000002d0: b492 78be c28d e7bd 8470 73be 96ea b6bd
000002e0: 4eba 04be 691d 40be c190 e3bd 4c62 0dbe
000002f0: ae25 4ebe 3ed2 22bd b8e3 a93d cb38 e1bd
00000300: c048 333b cadf 36bd 90cf c63d 94c9 20bd
00000310: 76d4 013e 5b21 af3d dc60 bf3d d32c 4c3d
00000320: c2d5 69bd 0b19 bebd 8b34 21bd 308d 653d
00000330: c3c0 003e 86d7 ecbb e9fe 28bd 9a1b abbd
00000340: 94e6 cabd 1e70 0a3d e987 f9bc a95e 6fbe
00000350: 6f3c a1bd 6dc9 f23c f2f9 eebc a778 46bd
00000360: f757 6abd 0184 cdbd 0a27 553d 9f71 bb3c
00000370: 3e7e 423e b739 f63d 4c8c c03d d374 f33d
00000380: fe56 593e 18ce 4fbd ce5d 073e 0712 ef3d
00000390: 9c19 c0bd a75b 73bd 6359 0bbc 112a 86be
000003a0: f37b 4b3b cb36 873e 5e0c c8bc c93f f23d
000003b0: 52d6 bbbd 8cff 59be 324d 83bd fce9 8b3e
000003c0: c102 d53d 5d29 ab3e 531c 0abe 19a8 95be
000003d0: 8dec 973c 9f6c ebbd f144 a6bc 2cd6 013e
000003e0: 9f0a 2f3e 60e4 56be 6163 86bd 2d11 d5bd
000003f0: 8ef3 073e 6d68 e43d 7993 02bd 107b e4bd

conv1.bias f4 [16]
-0.108872645 -0.13139455 -0.29706302 -0.05530795 -0.07227404 -0.1570517 -0.26991898 -0.1835002
-0.24047369 -0.13306001 -0.08767486 0.18993661 -0.092577465 -0.25197265 -0.5218693 -0.18854891
00000000: 9ff8 debd 4b8c 06be a518 98be 978a 62bd
00000010: 6904 94bd 29d2 20be d232 8abe 7ae7 3bbe
00000020: bc3e 76be e240 08be e18e b3bd be7e 423e
00000030: 4199 bdbd 8f02 81be 3a99 05bf f712 41be

conv2.weight f4 [32, 16, 5, 5]
-0.098495014 -0.098453134 -0.11294276 -0.06514131 -0.05032762 0.029809628 -0.026464695 -0.1603574
-0.18394756 -0.22441691 0.069771126 -0.08668076 -0.20187697 -0.19838606 -0.14778523 0.032944545
-0.14820684 -0.16825338 -0.16990192 -0.05131825 0.014132414 -0.16651851 -0.14823397 -0.109761395
-0.111110955 0.14549069 0.23203291 0.123707704 0.066047944 0.23544255 -0.034913227 -0.21943107
-0.18318737 -0.06306803 0.068359345 -0.22564502 -0.2579649 -0.25824443 -0.1317021 0.038904537
-0.23102164 -0.18323013 -0.11921502 -0.07039539 -0.04228739 0.0030319856 0.081314676 0.16045918
0.1755414 0.24001159 0.09081325 0.03719683 0.030636758 0.018288765 0.01563973 0.045496345
0.018066198 0.06063719 0.17988199 0.1439605 -0.044492636 0.026420316 0.09355273 0.17527725
0.13441749 -0.0064527863 0.039279677 0.06540223 0.038232893 0.16556083 0.024662798 0.040325657
0.057674594 0.069411665 0.16436222 -0.1314383 -0.03831794 -0.119482815 0.14606927 0.052109387
-0.004776066 -0.004102943 -0.042057447 0.10465801 0.13923 4.6584464e-06 0.058870614 0.026076619
-0.024651153 -0.03964561 0.090276375 -0.032618422 0.16558228 -0.051539026 0.11767053 0.026694959
0.08895374 0.12263379 0.15140367 0.0025862132 0.09130583 0.0035975333 -0.13383092 -0.07248813
-0.15081026 -0.030674195 0.14013061 -0.12760676 -0.018130539 0.14438069 -0.095636025 -0.04118289
-0.02623578 -0.022869058 0.006151553 0.021336664 -0.16363664 0.02985703 -0.21522658 0.08899516
0.091862984 0.026313739 0.109710895 0.0011884996 0.018203098 -0.11864511 -0.061561663 0.026343077
0.09383101 0.08818899 -0.12884256 -0.055839587 -0.048283458 -0.013711604 -0.015399125 -0.14756058
-0.110515036 -0.058647525 -0.041989017 -0.016507126 -0.13295409 -0.034131862 -0.07826549 0.021917488
0.009259162 0.013352163 0.047341358 0.105636925 0.018234111 0.09905398 0.15672572 0.041226633
-0.088521145 -0.07605375 -0.09781021 0.03327599 -0.18734324 -0.21531637 -0.07119428 -0.06453559
-0.12514098 -0.07515019 -0.14589156 -0.13935043 -0.0004778805 -0.00040857488 -0.05468239 -0.105419844
-0.0873241 -0.15126649 0.07377077 0.028988574 0.07404821 0.1682802 -0.0029402445 0.06449514
0.16804446 0.2456463 -0.2856519 -0.26269677 0.22074871 0.13947982 -0.070566334 -0.21339132
-0.11155302 -0.011936177 0.030542975 -0.285778 -0.16923667 -0.27014306 -0.006292895 0.016505169
-0.09781359 -0.1226953 -0.12934448 -0.04910626 0.029588014 -0.036358062 -0.027818946 -0.24075745
-0.027345734 0.14906108 -0.16076447 -0.24658558 -0.30225542 -0.18747497 -0.13945702 -0.3076857
-0.26708594 -0.1402177 -0.3582326 -0.36283526 -0.24653871 -0.115307435 0.04573235 -0.40536758
-0.39622587 -0.44908577 -0.12459428 -0.13814491 -0.16380844 -0.19253793 -0.31167555 -0.13258506
-0.06343206 -0.033872038 0.12500624 0.0787064 0.14141798 0.033729825 0.05924047 0.09079826
0.1869189 0.03630734 0.12632751 0.14541894 0.081512176 0.05028224 0.021224644 0.03704137
0.03532286 0.15060987 -0.06609082 0.06640769 -0.015960744 -0.05994188 0.08431618 0.027474009
0.015048465 0.04292828 0.1994394 0.18452896 0.08352526 -0.02528072 -0.059672426 0.27434534
00000000: c1b7 c9bd cca1 c9bd 894e e7bd cf68 85bd
00000010: 5624 4ebd 5233 f43c 7dcc d8bc bb34 24be
00000020: c05c 3cbe 8ccd 65be 2ae4 8e3d af85 b1bd
00000030: d6b8 4ebe b725 4bbe 0355 17be dcf0 063d
00000040: 89c3 17be 9d4a 2cbe c5fa 2dbe 1633 52bd
00000050: a48b 673c d483 2abe a5ca 17be 95ca e0bd
00000060: 248e e3bd 83fb 143e 099a 6d3e 775a fd3d
00000070: 2544 873d da17 713e 2c01 0fbd 8ab2 60be
00000080: 7895 3bbe d029 81bd fcff 8b3d 7d0f 67be
00000090: fa13 84be 9d38 84be eadc 06be 5d5a 1f3d
000000a0: f090 6cbe aea0 3bbe 0127 f4bd 752b 90bd
000000b0: 8b35 2dbd 47b4 463b 4f88 a63d 694f 243e
000000c0: 20c1 333e 99c5 753e 4cfc b93d b45b 183d
000000d0: f0f9 fa3c 52d2 953c e41e 803c 605a 3a3d
000000e0: 90ff 933c b45e 783d fc32 383e 626a 133e
000000f0: e93d 36bd 6b6f d83c 9398 bf3d e17b 333e
00000100: bda4 093e e571 d3bb bae3 203d 9bf1 853d
00000110: 189a 1c3d c788 293e a309 ca3c 842c 253d
00000120: 323c 6c3d b427 8e3d 924e 283e c397 06be
00000130: 46f3 1cbd 68b3 f4bd 2f93 153e a770 553d
00000140: 8c80 9cbb fb71 86bb 6e44 2cbd f056 d63d
00000150: 4f92 0e3e c04f 9c36 5022 713d a29e d53c
00000160: 37f1 c9bc 6f63 22bd d2e2 b83d e59a 05bd
00000170: 678e 293e 961a 53bd 3ffd f03d 63af da3c
00000180: 612d b63d 6d27 fb3d 9009 1b3e 757d 293b
00000190: 8dfe ba3d 98c4 6b3b f90a 09be a874 94bd
000001a0: 016e 1abe 7348 fbbc 667e 0f3e 59ab 02be
000001b0: 7f86 94bc 88d8 133e d2dc c3bd 64af 28bd
000001c0: 6bec d6bc e457 bbbc f792 c93b 3aca ae3c
000001d0: 5d90 27be bb96 f43c 5b64 5cbe 1843 b63d
000001e0: a922 bc3d e98f d73c 1bb0 e03d 6ec7 9b3a
000001f0: aa1e 953c 35fc f2bd 1528 7cbd 70cd d73c
00000200: 792a c03d 6e9c b43d 4eef 03be 0db8 64bd
00000210: e0c4 45bd a3a6 60bc 9d4c 7cbc 1f1a 17be
00000220: b555 e2bd 6338 70bd adfc 2bbd f439 87bc
00000230: 1e25 08be dacd 0bbd a849 a0bd 4e8c b33c
00000240: bdb3 173c 08c3 5a3c 03e9 413d 2c58 d83d
00000250: b45f 953c d0dc ca3d b57c 203e 42dd 283d
00000260: 934a b5bd 12c2 9bbd b850 c8bd 684c 083d
00000270: e8d6 3fbe e57b 5cbe 4fce 91bd 3c2b 84bd
00000280: f524 00be 58e8 99bd 9964 15be e1b1 0ebe
00000290: 098c fab9 fe35 d6b9 a4fa 5fbd 5ce6 d7bd
000002a0: fad6 b2bd 9ae5 1abe 2115 973d 7279 ed3c
000002b0: 97a6 973d a551 2c3e 1eb1 40bb 0716 843d
000002c0: d913 2c3e b48a 7b3e f740 92be 3180 86be
000002d0: f30b 623e ccd3 0e3e 1585 90bd 4183 5abe
000002e0: e975 e4bd f48f 43bc 4335 fa3c 7e51 92be
000002f0: 614c 2dbe 3150 8abe a134 cebb d935 873c
00000300: 7e52 c8bd ac47 fbbd e172 04be a523 49bd
00000310: 9062 f23c 31ec 14bd 8fe4 e3bc 1f89 76be
00000320: 2904 e0bc 78a3 183e 719f 24be ee80 7cbe
00000330: 39c1 9abe 70f9 3fbe d2cd 0ebe fb88 9dbe
00000340: 7dbf 88be 3b95 0fbe 436a b7be 8bc5 b9be
00000350: a574 7cbe 4e26 ecbd d851 3b3d 578c cfbe
00000360: 1ede cabe 92ee e5be 492b ffbd dc75 0dbe
00000370: 66bd 27be aa28 45be f093 9fbe 61c4 07be
00000380: abe8 81bd 68bd 0abd a301 003e d230 a13d
00000390: e0cf 103e 4928 0a3d 23a6 723d 70f4 b93d
000003a0: ab67 3f3e 01b7 143d 005c 013e b4e8 143e
000003b0: dbef a63d c0f4 4d3d 4edf ad3c b1b8 173d
000003c0: b4ae 103d 7939 1a3e a05a 87bd c100 883d
000003d0: 1bc0 82bc 9e85 75bd f6ad ac3d 2c11 e13c
000003e0: d68d 763c 90d5 2f3d d839 4c3e 29f5 3c3e
000003f0: 4b0f ab3d 8319 cfbc 136b 74bd fe76 8c3e

conv2.bias f4 [32]
0.21830939 -0.24772209 0.26706323 0.25941154 0.4702603 0.17218329 -0.031565327 -0.19902828
0.10110796 -0.03857212 0.36902526 -0.2034768 -0.16992313 0.021395208 -0.3283718 -0.07478373
0.7382441 -0.06471891 0.42444563 -0.019853095 0.32833874 0.18119328 -0.077058904 -0.03107222
0.3808209 0.0843365 0.11439829 0.30662042 0.2440993 -0.18115087 0.3053275 0.18551257
00000000: 7f8c 5f3e dcaa 7dbe 83bc 883e 97d1 843e
00000010: f5c5 f03e d150 303e a54a 01bd 12ce 4bbe
00000020: b111 cf3d cdfd 1dbd e1f0 bc3e 395c 50be
00000030: 5400 2ebe 0145 af3c 5920 a8be 3628 99bd
00000040: 91fd 3c3f 598b 84bd f050 d93e f5a2 a2bc
00000050: 041c a83e bb8a 393e 0fd1 9dbd 2b8b febc
00000060: f5fa c23e 9db8 ac3d a749 ea3d 5afd 9c3e
00000070: 2bf5 793e 9d7f 39be e353 9c3e 02f7 3d3e

fc1.weight f4 [120, 800]
0.026631853 -0.04616676 -0.0003305747 -0.0664137 -0.06635057 -0.0634218 -0.036900662 -0.041735362
-0.0681007 -0.06228202 -0.033899065 -0.014749312 -0.049089175 -0.062433824 -0.05656078 -0.03961811
-0.011221179 -0.05611446 -0.08326236 -0.06925257 -0.0029086422 -0.03516731 -0.0038391782 -0.026301391
-0.07801281 -0.11139818 -0.023639161 -0.11537462 -0.111364976 -0.00010167544 0.0010429141 -0.03326705
-0.028833631 0.009531901 -0.011855037 -0.015681362 -0.047721438 -0.027693925 -0.075997524 -0.10074547
-0.058490686 -0.09411331 -0.049939655 -0.07396002 -0.022867175 -0.059097387 -0.01500038 -0.04296502
-0.004019746 -0.06235945 -0.03105152 -0.03577768 -0.021016287 -0.04971418 -0.09858722 -0.053734165
0.0013058467 -0.03644084 -0.007089224 -0.057246547 -0.019742083 0.023018938 -0.0290683 -0.00079994905
0.0020587316 -0.058932226 0.019528104 -0.05706137 -0.03990061 -0.05540156 -0.0394251 -0.041449916
-0.092996955 -0.014839248 -0.081221566 -0.09120692 0.0009365096 -0.06791602 -0.038461026 -0.053487364
-0.012573516 0.045626663 0.048327465 -0.005251827 0.0028005051 0.000115790055 0.038572162 -0.01083837
0.0058986684 0.037903763 -0.009334526 -0.0087907445 -0.047152914 -0.04421724 -0.04696211 -0.024911141
-0.022000277 0.02890834 -0.03510464 -0.029825797 0.036513783 -0.010432042 0.040917028 -0.03248274
0.01931976 0.041902177 0.016638236 0.04198542 0.046956025 -0.0202998 0.024327444 0.07177058
0.093697295 -0.0015913567 -0.044927035 0.058393028 0.09021771 0.05647324 -0.0054062433 -0.0071518975
0.033757865 0.06764327 0.07789351 0.006910933 -0.0034561853 -0.031506486 -0.070632935 -0.009343578
-0.0034158144 0.014241343 -0.028355768 -0.09874817 -0.06484756 -0.06490961 -0.0052753603 -0.06569094
-0.086862154 -0.09358312 -0.09200911 -0.07296517 -0.07262243 -0.08258617 -0.06834435 -0.091965966
-0.068868294 -0.02761166 -0.07610067 -0.10250359 -0.00757787 -0.07250093 0.012117902 -0.03589569
0.008437256 0.039354235 -0.014343474 -0.0020349543 -0.030579364 0.008087712 -0.07983994 -0.12247609
-0.032490905 -0.019794228 -0.11799847 -0.08838728 -0.0747985 0.0009247732 0.024994934 -0.034639977
-0.03590571 0.015618899 -0.04432908 0.015752304 -0.0055460674 -0.030361457 -0.0067570102 -0.104165584
-0.06001176 -0.0878725 -0.07375573 -0.049454056 -0.068091646 -0.06100902 -0.0692652 -0.043002073
-0.05452593 -0.07825515 -0.08936053 -0.05429188 -0.07510586 -0.022813795 -0.07360674 0.006428723
-0.09302008 -0.064520575 -0.019554237 -0.08575973 -0.023767661 -0.09369655 -0.06660084 0.005523121
-0.0048184763 -0.045425273 -0.041003756 0.011155496 -0.09804017 -0.018261805 -0.066196546 -0.09490915
-0.10484992 -0.08524465 -0.040661454 -0.055667624 -0.014297209 -0.00438923 -0.017389433 0.010897594
-0.027338995 0.03384545 0.091868095 0.06487503 -0.009435324 -0.053759385 0.041831776 0.054066513
0.039894227 -0.053311702 -0.041631915 0.030131193 0.02504109 0.064441204 -0.034619607 -0.06288223
-0.038769547 0.0074269455 0.015042862 -0.06576856 -0.042239282 -0.022963118 -0.008672221 0.010905195
-0.00754658 -0.085447766 -0.01593654 0.00195544 0.024033729 -0.053487066 -0.08032924 0.002102053
0.006614259 0.08401146 -0.033618785 0.0017419595 -0.023184333 -0.03539246 0.00448895 -0.008219732
00000000: 0b2b da3c 5b19 3dbd fc50 adb9 e803 88bd
00000010: cfe2 87bd 4ae3 81bd 2625 17bd b3f2 2abd
00000020: 6178 8bbd 6e1b 7fbd bfd9 0abd 19a7 71bc
00000030: bb11 49bd 9cba 7fbd 47ac 67bd 9946 22bd
00000040: 09d9 37bc 47d8 65bd 7585 aabd 4bd4 8dbd
00000050: eb9e 3ebb 990b 10bd b99a 7bbb 0476 d7bc
00000060: 2ec5 9fbd bb24 e4bd eaa6 c1bc 8749 ecbd
00000070: 5213 e4bd 963a d5b8 64b2 883a 0843 08bd
00000080: 8234 ecbc b12b 1c3c a13b 42bc 3376 80bc
00000090: 8e77 43bd 5fde e2bc 97a4 9bbd a453 cebd
000000a0: ee93 6fbd 7bbe c0bd 868d 4cbd 5a78 97bd
000000b0: f153 bbbc 1a10 72bd 27c4 75bc 17fc 2fbd
000000c0: 13b8 83bb 9f6c 7fbd c25f febc 9e8b 12bd
000000d0: 592a acbc 19a1 4bbd 19e8 c9bd 5b18 5cbd
000000e0: f228 ab3a fe42 15bd b94c e8bb 5b7b 6abd
000000f0: 26ba a1bc 3692 bc3c a520 eebc acb3 51ba
00000100: c9eb 063b eb62 71bd 67f9 9f3c 2fb9 69bd
00000110: d26e 23bd bfec 62bd 377c 21bd 63c7 29bd
00000120: 3075 bebd 5120 73bc 7e57 a6bd b2ca babd
00000130: 1880 753a 8e17 8bbd 4f89 1dbd 9115 5bbd
00000140: 2601 4ebc 06e3 3a3d 05f3 453d 8517 acbb
00000150: ae88 373b 50d4 f238 d8fd 1d3d 6b93 31bc
00000160: 9e49 c13b fa40 1b3d d7ef 18bc 0e07 10bc
00000170: 6a23 41bd 231d 35bd 575b 40bd 7312 ccbc
00000180: ed39 b4bc 2fd1 ec3c e2c9 0fbd 3b55 f4bc
00000190: 7a8f 153d 28eb 2abc 9d98 273d 9f0c 05bd
000001a0: 7944 9e3c 9ea1 2b3d e94c 883c e7f8 2b3d
000001b0: f654 403d c44b a6bc 594a c73c 74fc 923d
000001c0: 5ee4 bf3d 1295 d0ba 6905 38bd 872d 6f3d
000001d0: 10c4 b83d 7c50 673d db26 b1bb 775a eabb
000001e0: b045 0a3d 8e88 8a3d a286 9f3d 1c75 e23b
000001f0: 2b81 62bb f20c 01bd 00a8 90bd ce15 19bc
00000200: dbdb 5fbb 8654 693c 5b4a e8bc 7b3c cabd
00000210: ccce 84bd 54ef 84bd eedc acbb f988 86bd
00000220: c9e4 b1bd 82a8 bfbd 466f bcbd c36e 95bd
00000230: 12bb 94bd f022 a9bd 1ff8 8bbd a758 bcbd
00000240: d20a 8dbd d931 e2bc abda 9bbd 67ed d1bd
00000250: c84f f8bb 5e7b 94bd 2a8a 463c 5c07 13bd
00000260: 6b3c 0a3c e831 213d e400 6bbc de5c 05bb
00000270: 9381 fabc 5382 043c 1f83 a3bd bfd4 fabd
00000280: 2f15 05bd 8127 a2bc 2fa9 f1bd 6404 b5bd
00000290: f52f 99bd 7b6c 723a 2dc2 cc3c a6e2 0dbd
000002a0: de11 13bd 69e6 7f3c 6992 35bd fa0a 813c
000002b0: c9bb b5bb 97b8 f8bc e969 ddbb c454 d5bd
000002c0: e4ce 75bd 7ff6 b3bd 3f0d 97bd 5690 4abd
000002d0: a273 8bbd 98e4 79bd eada 8dbd f122 30bd
000002e0: 9556 5fbd 3c44 a0bd a702 b7bd 2a61 5ebd
000002f0: 1ad1 99bd ffe3 babc 21bf 96bd 0aa8 d23b
00000300: 5081 bebd 5d23 84bd 3530 a0bc cca2 afbd
00000310: 66b4 c2bc fae3 bfbd 0566 88bd 4cfb b43b
00000320: 4fe4 9dbb da0f 3abd 8ef3 27bd 8bc5 363c
00000330: 49c9 c8bd c899 95bc 0e92 87bd ba5f c2bd
00000340: 8ebb d6bd bf94 aebd a08c 26bd bc03 64bd
00000350: d73e 6abc 88d3 8fbb 4974 8ebc d28b 323c
00000360: 07f6 dfbc 87a1 0a3d 5725 bc3d 33dd 843d
00000370: 9e96 1abc cd32 5cbd cc57 2b3d d974 5d3d
00000380: 2168 233d 5f5d 5abd 3a86 2abd b1d5 f63c
00000390: f922 cd3c c0f9 833d 4acd 0dbd 66c8 80bd
000003a0: d1cc 1ebd bc5d f33b 5676 763c abb1 86bd
000003b0: 1903 2dbd 261d bcbc ee15 0ebc b4ab 323c
000003c0: 4d49 f7bb 3dff aebd 598d 82bc d726 003b
000003d0: 62e2 c43c 4115 5bbd a883 a4bd 99c2 093b
000003e0: 6dbc d83b 330e ac3d dab3 09bd 7652 e43a
000003f0: 12ed bdbc aff7 10bd 0b18 933b 0eac 06bc

fc1.bias f4 [120]
-0.013229963 -0.039531976 0.4246273 -0.049567334 0.0050283736 -0.018630402 -0.06695338 -0.18844588
-0.040681608 -0.026305243 0.2827644 -0.032696526 -0.02614516 0.18476537 -0.07140706 0.33857423
0.55001765 0.11377705 -0.008584838 -0.002010986 -0.0046673105 -0.012355223 0.007313857 -0.016283102
0.20349684 -0.0035744898 0.0010058817 -0.011450876 0.19483681 -0.025792772 -0.017050572 -0.016047398
-0.022118388 -0.04151651 -0.033849433 -0.011771428 -0.29470137 0.2359701 -0.25742847 -0.035558652
-0.0066681327 0.28896505 0.12159422 -0.011946538 0.023515167 0.0069254413 -0.115869194 -0.013586688
-0.022318497 -0.015736755 0.00013304001 -0.036517832 -0.001429672 -0.060690824 -0.055448502 0.26517808
-0.048855096 -0.039055962 -0.04564611 0.14012817 -0.045561142 -0.0110354135 0.23801543 0.0069229025
0.006875706 -0.010334583 -0.011058023 -0.0047731576 0.13536672 0.21004762 0.22872598 0.24933727
-0.08029272 0.11530617 -0.18604699 0.19343148 0.078626394 0.50090593 -0.03123098 -0.081850484
-0.066245615 0.029388811 -0.048176352 0.02719645 0.40181983 -0.10611159 -0.018397111 -0.009684834
-0.07853096 -0.028978426 0.09271098 0.47296578 -0.009694202 -0.043687668 -0.02157322 -0.035182897
0.30950978 0.12235858 -0.010497421 0.5660255 -0.07253931 -0.022157347 0.018664546 0.008995998
-0.033392977 0.22336252 -0.044821717 0.019183857 -0.041200526 -0.14468181 -0.040512234 -0.004202511
-0.04087031 -0.065730095 0.45254317 -0.016739924 -0.0026581238 0.023261853 -0.11358624 0.2863282
00000000: 7dc2 58bc 48ec 21bd c068 d93e 1e07 4bbd
00000010: 0ec5 a43b c99e 98bc db1e 89bd f5f7 40be
00000020: c2a1 26bd 187e d7bc 7fc6 903e cbec 05bd
00000030: 602e d6bc 2233 3d3e dd3d 92bd 9a59 ad3e
00000040: f5cd 0c3f f103 e93d 6ca7 0cbc bfca 03bb
00000050: 3df0 98bb 906d 4abc 14a9 ef3b 2464 85bc
00000060: 7a61 503e fd41 6abb cad7 833a 749c 3bbc
00000070: 4d83 473e 5d4b d3bc a4ad 8bbc d575 83bc
00000080: 9f31 b5bc 370d 2abd b4a5 0abd f3dc 40bc
00000090: 19e3 96be 25a2 713e aacd 83be f3a5 11bd
000000a0: 5a80 dabb 3af3 933e 6406 f93d 6abb 43bc
000000b0: e1a2 c03c d0ee e23b d44c edbd b39a 5ebc
000000c0: 48d5 b6bc 5eea 80bc a880 0b39 b993 15bd
000000d0: d563 bbba f196 78bd f81d 63bd 6cc5 873e
000000e0: 481c 48bd 25f9 1fbd 6af7 3abd c27d 0f3e
000000f0: 529e 3abd e1cd 34bc 51ba 733e 84d9 e23b
00000100: 9a4d e13b 6252 29bc b62c 35bc 2668 9cbb
00000110: 939d 0a3e b916 573e 2537 6a3e 4552 7f3e
00000120: 8270 a4bd a425 ec3d 1a83 3ebe e712 463e
00000130: e006 a13d 5f3b 003f 1dd8 ffbc 3aa1 a7bd
00000140: c8ab 87bd cec0 f03c 9154 45bd 17cb de3c
00000150: 54bb cd3e 0951 d9bd 8ab5 96bc 23ad 1ebc
00000160: d7d4 a0bd 2a64 edbc 41df bd3d 9228 f23e
00000170: 6ed4 1ebc d7f1 32bd 52ba b0bc f11b 10bd
00000180: 1178 9e3e 2397 fa3d 60fd 2bbc 0ce7 103f
00000190: 7d8f 94bd 5383 b5bc 64e6 983c f363 133c
000001a0: 13c7 08bd 25b9 643e fa96 37bd 7727 9d3c
000001b0: e2c1 28bd 7827 14be 28f0 25bd 38b5 89bb
000001c0: a067 27bd 809d 86bd bdb3 e73e 2a22 89bc
000001d0: eb33 2ebb a48f be3c e79f e8bd 9c99 923e

fc2.weight f4 [84, 120]
-0.06495065 0.017095886 0.103546746 0.030850714 -0.030838314 0.10597866 0.10337299 0.1639198
-0.027906608 -0.068532206 0.21341786 -0.07042803 -0.021360176 -0.16939276 -7.069993e-05 0.025023717
-0.059757784 -0.10481293 -0.09374058 0.10524535 -0.1291756 0.0039218846 -0.0013647139 0.16634977
-0.025185252 -0.061843835 -0.012668271 -0.0716471 0.0894901 -0.029031599 0.06073425 -0.012462347
-0.054053385 0.07327907 0.15227325 -0.021171972 0.19959353 -0.10636848 -0.1142541 -0.034367543
-0.06610242 -0.03065224 0.25592214 -0.030102419 -0.024918653 -0.063407734 0.14706582 0.0018311373
-0.055673335 0.21754217 0.09343671 0.066286005 -0.09577088 -0.007716192 0.088264406 -0.018133998
-0.014090356 0.03753227 0.02912058 -0.08378876 0.020216744 0.055166274 0.10628587 0.00702203
-0.046722606 -0.00492606 0.017280323 -0.050662227 0.18228151 0.009447428 -0.04750069 -0.060470782
0.10085982 0.013547917 0.28361687 -0.008742069 -0.09272813 0.08707076 0.023268184 -0.14900944
0.05312281 -0.0848552 -0.049756028 -0.043337356 -0.10240236 -0.1116144 0.03632441 0.061792567
-0.0974099 0.05496884 -0.09247019 -0.060373917 0.0421872 -0.06674476 0.03756753 -0.074482016
-0.06044016 -0.06033337 -0.14683594 -0.1038149 -0.043024775 -0.005535079 0.04145566 0.027561978
-0.07597105 -0.13500461 -0.060385257 0.11551648 0.009192407 0.19616815 0.010344245 0.14065573
-0.046068627 -0.010750642 0.06484664 -0.039675135 -0.02344326 -0.0062462976 0.1211272 -0.07723703
-0.035087455 0.08252753 -0.15468448 0.0803039 -0.04422818 -0.017125223 0.080681786 -0.079765365
-0.065807715 0.066469 0.091451034 0.061237235 -0.043657348 0.005171448 0.037860185 -0.011664
0.02329192 -0.04005618 0.0014748712 0.0050690123 0.020114826 0.060891874 0.041640025 -0.1018382
-0.11336589 -0.01722372 0.00033438494 -0.010698702 0.083559416 0.08603259 0.101386115 0.053613476
0.049199305 0.012714522 -0.054873053 -0.113889456 -0.15479955 0.12439235 0.143958 0.027198134
0.0018245712 -0.043455027 -0.11894353 0.04521324 -0.03428287 0.00895788 0.16525619 0.43640044
-0.03096869 -0.32545632 0.054390397 0.05274574 -0.011171661 0.0044865524 0.03137263 -0.092762165
-0.004382864 0.010405317 -0.08342503 -0.02954424 -0.09797814 0.054371584 0.08074726 0.049970146
0.055016726 -0.08900502 -0.036766987 0.07982797 0.09082651 -0.07378971 0.32643467 -0.015763188
0.026895318 -0.000106471576 -0.08937965 0.09549621 -0.04130319 -0.032216307 0.08478401 0.25039914
-0.06338111 0.09285163 0.040016174 -0.12865818 0.12823091 0.08565935 0.07798481 0.06422905
0.0002004999 -0.011419676 -0.039332703 0.03794481 -0.03195548 -0.008735715 -0.022837732 0.022542581
-0.17368384 -0.09350252 -0.07787918 -0.005801388 0.0055424627 -0.06485553 -0.075511105 -0.052157085
0.024554048 0.04567053 -0.008217068 0.14115174 -0.0051226052 -0.1954438 -0.012422542 0.022132233
0.032306664 0.11993205 -0.16953596 0.07288788 -0.0019792274 -0.016317623 -0.15810007 0.1760053
0.017487021 0.07863058 -0.29628322 0.06706614 0.02314209 -0.11094479 0.10681353 0.13483624
-0.14566606 -0.052818254 0.22417241 0.07154668 -0.071679175 0.0328216 -0.18833417 0.041267876
00000000: d904 85bd ac0c 8c3c 5110 d43d a3ba fc3c
00000010: a2a0 fcbc 570b d93d 38b5 d33d 98da 273e
00000020: 669c e4bc 9d5a 8cbd 368a 5a3e 923c 90bd
00000030: 89fb aebc 4c75 2dbe bc44 94b8 8afe cc3c
00000040: 94c4 74bd 29a8 d6bd 10fb bfbd e08a d73d
00000050: 9c46 04be 2783 803b 33e0 b2ba 9857 2a3e
00000060: 4d51 cebc f64f 7dbd 948e 4fbc b7bb 92bd
00000070: 9646 b73d add3 edbc 7ac4 783d df2e 4cbc
00000080: 1567 5dbd 5613 963d 85ed 1b3e d870 adbc
00000090: 3f62 4c3e b8d7 d9bd 0efe e9bd fbc4 0cbd
000000a0: b560 87bd 681a fbbc 3a08 833e 5999 f6bc
000000b0: 3422 ccbc eadb 81bd 6c98 163e c602 f03a
000000c0: b909 64bd 60c3 5e3e bf5b bf3d f5c0 873d
000000d0: 8623 c4bd 1cd8 fcbb f8c3 b43d c08d 94bc
000000e0: 3ddb 66bc 70bb 193d 488e ee3c 7199 abbd
000000f0: 969d a53c 08f6 613d 68ac d93d 0f19 e63b
00000100: 3460 3fbd c96a a1bb 778f 8d3c 3283 4fbd
00000110: 01a8 3a3e 63c9 1a3c 1590 42bd 36b0 77bd
00000120: 988f ce3d 15f8 5d3c 3b36 913e e53a 0fbc
00000130: 3fe8 bdbd 2852 b23d eb9c be3c ee95 18be
00000140: 4e97 593d 90c8 adbd facc 4bbd 8382 31bd
00000150: 54b8 d1bd 1796 e4bd e8c8 143d 341a 7d3d
00000160: d77e c7bd 0227 613d 0361 bdbd a44a 77bd
00000170: 7ccc 2c3d 7ab1 88bd 69e0 193d 078a 98bd
00000180: 1a90 77bd 2020 77bd 295c 16be e89c d4bd
00000190: bf3a 30bd 9c5f b5bb 69cd 293d a8c9 e13c
000001a0: b696 9bbd a63e 0abe 8856 77bd e793 ec3d
000001b0: c09b 163c 4ee0 483e e87a 293c 0e08 103e
000001c0: 75b2 3cbd 7623 30bc 51ce 843d 6582 22bd
000001d0: 140c c0bc bead ccbb 8a11 f83d 732e 9ebd
000001e0: ddb7 0fbd 3204 a93d 9c65 1ebe 5f76 a43d
000001f0: 9c28 35bd 324a 8cbc 7e3c a53d 065c a3bd
00000200: 32c6 86bd e620 883d ae4a bb3d e5d3 7a3d
00000210: 0cd2 32bd 4075 a93b 4813 1b3d 5d1a 3fbc
00000220: b2ce be3c f311 24bd 7750 c13a f519 a63b
00000230: d9c7 a43c c269 793d bb8e 2a3d 8c90 d0bd
00000240: 602c e8bd c218 8dbc 6350 af39 9c49 2fbc
00000250: 3321 ab3d db31 b03d 86a3 cf3d ce99 5b3d
00000260: 3685 493d 9250 503c 91c2 60bd e03e e9bd
00000270: c683 1ebe 6bc1 fe3d ba69 133e 9fce de3c
00000280: 7326 ef3a e6fd 31bd aa98 f3bd 8531 393d
00000290: 326c 0cbd 12c4 123c eb38 293e e16f df3e
000002a0: 0db2 fdbc 36a2 a6be 77c8 5e3d eb0b 583d
000002b0: 5809 37bc ee03 933b 9680 003d 17fa bdbd
000002c0: 219e 8fbb 107b 2a3c beda aabd c306 f2bc
000002d0: c3a8 c8bd bdb4 5e3d d25e a53d 7fad 4c3d
000002e0: 3859 613d 4448 b6bd fb98 16bd d97c a33d
000002f0: 4003 ba3d 0f1f 97bd 7222 a73e cd21 81bc
00000300: 9253 dc3c 7e49 dfb8 ae0c b7bd 8493 c33d
00000310: 892d 29bd 3ff5 03bd 3da3 ad3d 5134 803e
00000320: f5cd 81bd ff28 be3d 00e8 233d f8be 03be
00000330: f74e 033e 2b6e af3d 80b6 9f3d 858a 833d
00000340: 483d 5239 9819 3bbc 541b 21bd 046c 1b3d
00000350: c0e3 02bd 3f20 0fbc 3216 bbbc 38ab b83c
00000360: 2dda 31be 407e bfbd 1f7f 9fbd 9219 bebb
00000370: 8c9d b53b fad2 84bd 91a5 9abd aba2 55bd
00000380: 9225 c93c 0611 3b3d e2a0 06bc 158a 103e
00000390: 87db a7bb 6b22 48be eb87 4bbc a84e b53c
000003a0: fe53 043d ef9e f53d d69a 2dbe 3e46 953d
000003b0: edb5 01bb 89ac 85bc fce4 21be bc3a 343e
000003c0: f140 8f3c 1209 a13d 6fb2 97be f959 893d
000003d0: 7b94 bd3c 0637 e3bd 0dc1 da3d 8312 0a3e
000003e0: 7c29 15be f457 58bd 748d 653e 1187 923d
000003f0: 88cc 92bd f16f 063d acda 40be 8108 293d

fc2.bias f4 [84]
-0.17530358 -0.061464146 -0.14398816 0.020601947 0.10730925 0.4388745 0.15765248 -0.015242395
0.12250334 -0.09153159 0.16805258 -0.02513461 -0.06112641 0.30475038 0.16244632 0.27111283
-0.13815698 0.33989036 0.11192251 -0.18082756 -0.02434205 0.27387425 0.31668207 -0.08962757
0.26108322 -0.08416321 -0.0037414567 0.10620443 0.24158445 -0.13805345 -0.007879235 0.14649636
0.16151126 0.23310114 -0.026364474 0.24888982 -0.021492831 0.40272725 0.5031043 -0.25735953
0.014390241 0.43519598 0.0527525 0.08706378 0.24047488 -0.13014363 -0.08186429 0.03274701
0.22910261 0.44532642 0.34533143 -0.03206898 -0.00087895046 -0.04460905 0.35223955 -0.22046117
0.26097283 0.3244313 -0.14189787 0.3616249 0.16094686 0.34565115 -0.085399516 0.007075757
0.26099828 -0.08741011 -0.19347887 0.18094224 -0.0024107043 0.019816162 0.22155516 0.1527677
-0.120792516 0.0507236 0.13972291 0.033197418 -0.092624985 -0.15194951 0.017645227 0.38511917
0.12249969 0.22890863 0.301625 0.1398927
00000000: c882 33be d4c1 7bbd a271 13be 6ac5 a83c
00000010: f4c4 db3d 29b4 e03e a76f 213e 3dbb 79bc
00000020: 08e3 fa3d ea74 bbbd fa15 2c3e 19e7 cdbc
00000030: b05f 7abd 3e08 9c3e 5458 263e 4dcf 8a3e
00000040: 0679 0dbe 1c06 ae3e a137 e53d dc2a 39be
00000050: fb68 c7bc 3f39 8c3e 2724 a23e a98e b7bd
00000060: b3ac 853e c35d acbd 3a33 75bb b581 d93d
00000070: ea61 773e e25d 0dbe e817 01bc 2403 163e
00000080: 3563 253e 11b2 6e3e 4ffa d7bc f9dc 7e3e
00000090: bc11 b0bc 4432 ce3e 72cb 003f a1c4 83be
000000a0: 0cc5 6b3c 02d2 de3e 0113 583d 7f4e b23d
000000b0: 0c3f 763e 5f44 05be 77a8 a7bd bb21 063d
000000c0: e099 6a3e d301 e43e 48cf b03e c35a 03bd
000000d0: 5e69 66ba fbb7 36bd be58 b43e 93c0 61be
000000e0: 3b9e 853e dc1b a63e ad4d 11be e626 b93e
000000f0: 41cf 243e 30f9 b03e f1e5 aebd c0db e73b
00000100: 91a1 853e 1204 b3bd 531f 46be ec48 393e
00000110: e8fc 1dbb 8155 a23c 5bdf 623e 236f 1c3e
00000120: 1162 f7bd 8dc3 4f3d 8613 0f3e 04fa 073d
00000130: 2bb2 bdbd a798 1bbe b98c 903c 572e c53e
00000140: 1ee1 fa3d 0667 6a3e 986e 9a3e 0840 0f3e

fc3.weight f4 [10, 84]
0.12854566 -0.18615861 -0.20244128 0.045526035 0.09726819 0.021962577 -0.21788801 0.029904524
-0.15952794 -0.10910753 0.2517491 -0.19672973 -0.11582907 -0.27139193 -0.012587687 -0.25345993
0.06249913 0.15595138 -0.09538827 -0.14721051 -0.031405594 -0.16364461 -0.03990297 0.05052532
-0.1296644 -0.13206965 -0.13202122 -0.20794262 -0.06011481 0.13315599 -0.1408401 -0.3235937
-0.034335196 0.0066772 -0.2744984 0.095343634 0.06127989 0.1153084 -0.35192838 -0.5134008
0.0677208 -0.40227517 0.057328332 0.13438343 0.08430014 -0.036413178 -0.009891046 -0.09202456
0.06928713 0.054394882 0.025373125 -0.025594383 -0.23010942 0.06727313 0.027115613 0.03554577
-0.35606956 -0.037381887 -0.0059840875 -0.18149811 -0.23952144 -0.19631007 -0.08958267 -0.18287085
-0.19359174 -0.07008839 0.028180813 0.07562642 0.12441111 0.07572898 0.1555648 -0.22305992
0.06366178 0.066046424 0.10933857 -0.07549503 -0.31707963 0.06561574 0.1682547 -0.066214755
0.15478146 -0.06413641 0.09006533 -0.071974374 0.18671523 -0.008697863 0.18372892 -0.034256864
0.013603724 -0.22698665 0.06070199 0.035191543 -0.01594449 -0.02219793 -0.25749245 0.14061612
-0.19743608 -0.2432908 0.048923325 0.13998316 0.06107122 -0.34287494 -0.04205062 0.11676487
-0.020623155 0.14601806 -0.4086504 -0.13071695 -0.024889389 0.0792838 -0.38774115 -0.19532907
-0.18902698 -0.009476435 0.042401418 0.053335443 -0.2845618 -0.0032939431 0.15716358 0.16122504
-0.284992 -0.21395709 -0.13880178 -0.060802657 0.15534621 -0.30826056 -0.007042842 -0.025651963
-0.2967135 -0.03256067 0.036427807 -0.111983605 0.09249122 -0.13207915 -0.34083924 0.1374516
-0.102105334 -0.035897404 -0.09787296 0.21778065 -0.08146923 -0.24365275 -0.10593827 -0.20994747
0.10768922 -0.037493583 -0.19384687 0.11230766 0.030215861 -0.29639548 -0.100074954 0.05930292
-0.09669263 -0.095272265 -0.1716769 -0.09788042 0.11935115 0.09988068 0.12132072 0.22782844
-0.21983775 0.14619647 -0.1140142 -0.26201648 -0.20193546 -0.098206766 -0.3044178 -0.12444682
0.11142797 0.10945306 0.13499293 -0.08059732 0.026715964 -0.110261746 -0.18544927 -0.2724491
0.11394795 -0.04808232 0.03435073 -0.038477108 -0.051976968 0.08072512 0.11877637 -0.06420705
0.22030415 -0.057949882 -0.10735205 0.08536095 0.07393682 -0.2181404 0.10730314 -0.024570359
0.12373199 -0.037859004 -0.09439693 -0.009719565 0.17932402 -0.05251335 0.10709559 0.25643572
-0.20637932 -0.120764226 -0.030244442 0.0068212426 0.0040485184 -0.070898466 0.06491044 -0.14336714
-0.16024113 0.1606907 -0.21251729 0.10396726 0.027862651 -0.057239946 -0.12592047 -0.020537829
-0.21021214 -0.02477755 0.114176534 0.15407862 6.933705e-05 0.057634123 0.061397836 -0.30113807
-0.16172251 0.01162599 0.020849347 -0.14450425 -0.203456 -0.008269212 0.17029677 0.07744197
0.123844214 -0.29861563 -0.07144389 -0.084250085 0.118153915 0.14689682 0.18394864 -0.03011107
0.06573982 -0.24145705 -0.028320419 -0.13250165 0.18434668 -0.094662696 0.11660757 -0.07000194
0.11522591 -0.17970134 0.17467614 -0.06917497 -0.0425451 -0.011660625 -0.13348818 0.06725791
00000000: 79a1 033e 5da0 3ebe c44c 4fbe 8279 3a3d
00000010: 8b34 c73d ddea b33c 091e 5fbe 55fa f43c
00000020: 4b5b 23be c573 dfbd 42e5 803e 8573 49be
00000030: cb37 edbd e2f3 8abe 963c 4ebc 80c5 81be
00000040: 16ff 7f3d b8b1 1f3e ed5a c3bd 5abe 16be
00000050: 27a3 00bd 7492 27be 4c71 23bd a3f3 4e3d
00000060: bfc6 04be 443d 07be 9230 07be e9ee 54be
00000070: f23a 76bd 0b5a 083e 6338 10be 13ae a5be
00000080: 10a3 0cbd 6acc da3b 0e8b 8cbe 8643 c33d
00000090: 9f00 7b3d cf26 ec3d f52f b4be 3c6e 03bf
000000a0: 34b1 8a3d 03f7 cdbe 1dd1 6a3d cf9b 093e
000000b0: 8da5 ac3d fc25 15bd 0e0e 22bc 5f77 bcbd
000000c0: 69e6 8d3d 2bcd 5e3d 4ddb cf3c 50ab d1bc
000000d0: cea1 6bbe 7fc6 893d 9021 de3c 7198 113d
000000e0: c04e b6be c01d 19bd 2a16 c4bb a4da 39be
000000f0: 1c45 75be 8205 49be 1e77 b7bd 7f42 3bbe
00000100: ea3c 46be 808a 8fbd 73db e63c 06e2 9a3d
00000110: 41cb fe3d cc17 9b3d 614c 1f3e d269 64be
00000120: 1b61 823d 5943 873d e6ec df3d 239d 9abd
00000130: 4358 a2be 8c61 863d f64a 2c3e 9a9b 87bd
00000140: 087f 1e3e f359 83bd 2c74 b83d 4d67 93bd
00000150: 4732 3f3e 7b81 0ebc 6f23 3c3e ed50 0cbd
00000160: 27e2 5e3c 306f 68be a6a2 783d 0225 103d
00000170: 059e 82bc 6fd8 b5bc 0dd6 83be acfd 0f3e
00000180: af2c 4abe 3921 79be d363 483d bf57 0f3e
00000190: d125 7a3d 4e8d afbe 453d 2cbd 6c22 ef3d
000001a0: e4f1 a8bc c285 153e a03a d1be aada 05be
000001b0: d5e4 cbbc 8c5f a23d 0286 c6be 5804 48be
000001c0: 4a90 41be 0d43 1bbc 1cad 2d3d 4476 5a3d
000001d0: 16b2 91be 32df 57bb 7def 203e 2d18 253e
000001e0: 79ea 91be 9117 5bbe 0e22 0ebe 350c 79bd
000001f0: 1413 1f3e 54d4 9dbe a4c7 e6bb 1124 d2bc
00000200: d5ea 97be 565e 05bd 5335 153d a957 e5bd
00000210: 096c bd3d c23f 07be 7b82 aebe 1dc0 0c3e
00000220: 9a1c d1bd 2809 13bd 9e71 c8bd e401 5f3e
00000230: 57d9 a6bd 1b80 79be 2af6 d8bd 78fc 56be
00000240: 2a8c dc3d df92 19bd cb7f 46be 8f01 e63d
00000250: 4187 f73c 26c1 97be 19f4 ccbd 9ee7 723d
00000260: c906 c6bd 1b1e c3bd 12cc 2fbe 8875 c8bd
00000270: 606e f43d 3e8e cc3d ff76 f83d dc4b 693e
00000280: 261d 61be 87b4 153e 4780 e9bd 0627 86be
00000290: 2bc8 4ebe a120 c9bd a6dc 9bbe f9dd febd
000002a0: 5934 e43d ed28 e03d 963b 0a3e 3510 a5bd
000002b0: 70db da3c e9d0 e1bd 6ae6 3dbe 737e 8bbe
000002c0: 8b5d e93d f7f1 44bd 5ab3 0c3d 2c9a 1dbd
000002d0: cde5 54bd 3653 a53d 0741 f33d fc7e 83bd
000002e0: 6997 613e db5c 6dbd 64db dbbd b9d1 ae3d
000002f0: 306c 973d 3260 5fbe c0c1 db3d c747 c9bc
00000300: 3367 fd3d 0b12 1bbd 2d53 c1bd cf3e 1fbc
00000310: b7a0 373e 3d18 57bd ef54 db3d 8b4b 833e
00000320: 1a55 53be 3c53 f7bd 31c3 f7bc bb84 df3b
00000330: 6fa9 843b 3733 91bd c4ef 843d d6ce 12be
00000340: 4016 24be 1a8c 243e 229e 59be c9ec d43d
00000350: 3740 e43c 6f74 6abd 4cf1 00be f33e a8bc
00000360: da41 57be 4afa cabc 63d5 e93d c9c6 1d3e
00000370: 0c69 9138 c211 6c3d 4c7c 7b3d c52e 9abe
00000380: 969a 25be f07a 3e3c 40cc aa3c ecf8 13be
00000390: c556 50be 977b 07bc 4762 2e3e e599 9e3d
000003a0: 09a2 fd3d 26e4 98be 2d51 92bd 4f8b acbd
000003b0: aefa f13d 1f6c 163e 085d 3c3e 7eab f6bc
000003c0: 99a2 863d 8440 77be 3900 e8bc 83ae 07be
000003d0: 60c5 3c3e 84de c1bd f3cf ee3d 2d5d 8fbd
000003e0: 90fb eb3d a103 38be 4dde 323e 9bab 8dbd
000003f0: c543 2ebd 350c 3fbc 20b1 08be 84be 893d

fc3.bias f4 [10]
0.0475907 -0.31482115 -0.07319533 0.23035356 0.2155173 -0.101185955 -0.07182697 -0.053357977
0.1990712 -0.08819723
00000000: 77ee 423d 3d30 a1be 6fe7 95bd cee1 6b3e
00000010: 91b0 5c3e 953a cfbd 051a 93bd e58d 5abd
00000020: 52d9 4b3e c0a0 b4bd
